…
/opt/conda/envs/crossflow/lib/python3.8/site-packages/timm/models/layers/__init__.py:48: FutureWarning: Importing from timm.models.layers is deprecated, please import via timm.layers
  warnings.warn(f"Importing from {__name__} is deprecated, please import via timm.layers", FutureWarning)
TransEncoder compressor changed dim! Janus1B
2025-04-07 18:08:37,214 - factory.py - Loaded ViT-L-16-SigLIP-256 model config.
TransEncoder compressor changed dim! Janus1B
2025-04-07 18:08:50,568 - factory.py - Loaded ViT-L-16-SigLIP-256 model config.
params_decay 1361
params_nodecay 204
train_state.nnet: MRModel(
  (stages): ModuleList(
    (0): Stage(
      (input_layer): Sequential(
        (0): DownInterpolate(ratio=1)
        (1): Conv2d(4, 960, kernel_size=(4, 4), stride=(4, 4))
        (2): ChannelLast()
        (3): PositionEmbeddings(
          (position_embeddings): Embedding(256, 960)
        )
      )
      (blocks): ModuleList(
        (0-28): 29 x TransformerBlock(
          (block1): SelfAttention(
            (norm): TDRMSNorm(
              (scale): TimeDependentParameter(shape=(960,))
            )
            (query_key_value): Linear(in_features=960, out_features=2880, bias=False)
            (dense): Linear(in_features=960, out_features=960, bias=True)
          )
          (block2): MLPBlock(
            (norm): TDRMSNorm(
              (scale): TimeDependentParameter(shape=(960,))
            )
            (act): GELU(approximate='none')
            (w0): Linear(in_features=960, out_features=1920, bias=True)
            (w1): Linear(in_features=960, out_features=1920, bias=True)
            (w2): Linear(in_features=1920, out_features=960, bias=True)
          )
          (dropout): Dropout(p=0, inplace=False)
        )
      )
      (skip_denses): ModuleList(
        (0-13): 14 x Linear(in_features=1920, out_features=960, bias=True)
      )
      (output_layer): Sequential(
        (0): LayerNorm(
          (weight): TimeDependentParameter(shape=(960,))
          (bias): TimeDependentParameter(shape=(960,))
        )
        (1): ChannelFirst()
        (2): Conv2d(960, 4, kernel_size=(3, 3), stride=(1, 1), padding=(1, 1))
      )
    )
    (1): Stage(
      (input_layer): Sequential(
        (0): DownInterpolate(ratio=1)
        (1): Conv2d(4, 480, kernel_size=(2, 2), stride=(2, 2))
        (2): ChannelLast()
        (3): PositionEmbeddings(
          (position_embeddings): Embedding(1024, 480)
        )
      )
      (upsample): Sequential(
        (0): LayerNorm(
          (weight): TimeDependentParameter(shape=(28800,))
          (bias): TimeDependentParameter(shape=(28800,))
        )
        (1): PixelShuffleUpsample(
          (kernel): Linear(in_features=28800, out_features=1920, bias=True)
        )
        (2): LayerNorm(
          (weight): TimeDependentParameter(shape=(480,))
          (bias): TimeDependentParameter(shape=(480,))
        )
      )
      (blocks): ModuleList(
        (0-14): 15 x ConvNeXtBlock(
          (block1): Sequential(
            (0): ChannelFirst()
            (1): Conv2d(480, 480, kernel_size=(7, 7), stride=(1, 1), padding=(3, 3), groups=480)
            (2): ChannelLast()
          )
          (block2): MLPBlock(
            (norm): TDRMSNorm(
              (scale): TimeDependentParameter(shape=(480,))
            )
            (act): GELU(approximate='none')
            (w0): Linear(in_features=480, out_features=960, bias=True)
            (w1): Linear(in_features=480, out_features=960, bias=True)
            (w2): Linear(in_features=960, out_features=480, bias=True)
          )
          (dropout): Dropout(p=0, inplace=False)
        )
      )
      (skip_denses): ModuleList(
        (0-6): 7 x Linear(in_features=960, out_features=480, bias=True)
      )
      (output_layer): Sequential(
        (0): LayerNorm(
          (weight): TimeDependentParameter(shape=(480,))
          (bias): TimeDependentParameter(shape=(480,))
        )
        (1): ChannelFirst()
        (2): Conv2d(480, 4, kernel_size=(3, 3), stride=(1, 1), padding=(1, 1))
      )
    )
    (2): Stage(
      (input_layer): Sequential(
        (0): DownInterpolate(ratio=1)
        (1): Conv2d(4, 240, kernel_size=(1, 1), stride=(1, 1))
        (2): ChannelLast()
        (3): PositionEmbeddings(
          (position_embeddings): Embedding(4096, 240)
        )
      )
      (upsample): Sequential(
        (0): LayerNorm(
          (weight): TimeDependentParameter(shape=(7680,))
          (bias): TimeDependentParameter(shape=(7680,))
        )
        (1): PixelShuffleUpsample(
          (kernel): Linear(in_features=7680, out_features=960, bias=True)
        )
        (2): LayerNorm(
          (weight): TimeDependentParameter(shape=(240,))
          (bias): TimeDependentParameter(shape=(240,))
        )
      )
      (blocks): ModuleList(
        (0-14): 15 x ConvNeXtBlock(
          (block1): Sequential(
            (0): ChannelFirst()
            (1): Conv2d(240, 240, kernel_size=(7, 7), stride=(1, 1), padding=(3, 3), groups=240)
            (2): ChannelLast()
          )
          (block2): MLPBlock(
            (norm): TDRMSNorm(
              (scale): TimeDependentParameter(shape=(240,))
            )
            (act): GELU(approximate='none')
            (w0): Linear(in_features=240, out_features=480, bias=True)
            (w1): Linear(in_features=240, out_features=480, bias=True)
            (w2): Linear(in_features=480, out_features=240, bias=True)
          )
          (dropout): Dropout(p=0, inplace=False)
        )
      )
      (skip_denses): ModuleList(
        (0-6): 7 x Linear(in_features=480, out_features=240, bias=True)
      )
      (output_layer): Sequential(
        (0): LayerNorm(
          (weight): TimeDependentParameter(shape=(240,))
          (bias): TimeDependentParameter(shape=(240,))
        )
        (1): ChannelFirst()
        (2): Conv2d(240, 4, kernel_size=(3, 3), stride=(1, 1), padding=(1, 1))
      )
    )
  )
  (context_encoder): TransEncoder(
    (compressor): Compressor(
      (fc1): Linear(in_features=2048, out_features=768, bias=True)
      (ln_fc1): LayerNorm((768,), eps=1e-05, elementwise_affine=True)
      (fc2): Linear(in_features=768, out_features=768, bias=True)
    )
    (layers): ModuleList(
      (0-10): 11 x EncoderLayer(
        (attn): MultiHeadAttentioin(
          (W_Q): Linear(in_features=768, out_features=768, bias=True)
          (W_K): Linear(in_features=768, out_features=768, bias=True)
          (W_V): Linear(in_features=768, out_features=768, bias=True)
          (W_O): Linear(in_features=768, out_features=768, bias=True)
          (dropout): Dropout(p=0.1, inplace=False)
        )
        (feed_forward): FeedForward(
          (ffn_1): Linear(in_features=768, out_features=1024, bias=True)
          (ffn_2): Linear(in_features=1024, out_features=768, bias=True)
          (act): ReLU()
          (dropout): Dropout(p=0.1, inplace=False)
        )
        (norm1): LayerNorm()
        (norm2): LayerNorm()
        (dropout1): Dropout(p=0.1, inplace=False)
        (dropout2): Dropout(p=0.1, inplace=False)
      )
    )
    (reduction_layers): ModuleList(
      (0): EncoderReductionLayer(
        (attn): MultiHeadAttentioin(
          (W_Q): Linear(in_features=768, out_features=768, bias=True)
          (W_K): Linear(in_features=768, out_features=768, bias=True)
          (W_V): Linear(in_features=768, out_features=768, bias=True)
          (W_O): Linear(in_features=768, out_features=768, bias=True)
          (dropout): Dropout(p=0.1, inplace=False)
        )
        (feed_forward): FeedForward(
          (ffn_1): Linear(in_features=768, out_features=1024, bias=True)
          (ffn_2): Linear(in_features=1024, out_features=768, bias=True)
          (act): ReLU()
          (dropout): Dropout(p=0.1, inplace=False)
        )
        (reduction): Linear(in_features=768, out_features=384, bias=True)
        (norm1): LayerNorm()
        (norm2): LayerNorm()
        (dropout1): Dropout(p=0.1, inplace=False)
        (dropout2): Dropout(p=0.1, inplace=False)
      )
      (1): EncoderReductionLayer(
        (attn): MultiHeadAttentioin(
          (W_Q): Linear(in_features=384, out_features=384, bias=True)
          (W_K): Linear(in_features=384, out_features=384, bias=True)
          (W_V): Linear(in_features=384, out_features=384, bias=True)
          (W_O): Linear(in_features=384, out_features=384, bias=True)
          (dropout): Dropout(p=0.1, inplace=False)
        )
        (feed_forward): FeedForward(
          (ffn_1): Linear(in_features=384, out_features=1024, bias=True)
          (ffn_2): Linear(in_features=1024, out_features=384, bias=True)
          (act): ReLU()
          (dropout): Dropout(p=0.1, inplace=False)
        )
        (reduction): Linear(in_features=384, out_features=192, bias=True)
        (norm1): LayerNorm()
        (norm2): LayerNorm()
        (dropout1): Dropout(p=0.1, inplace=False)
        (dropout2): Dropout(p=0.1, inplace=False)
      )
      (2): EncoderReductionLayer(
        (attn): MultiHeadAttentioin(
          (W_Q): Linear(in_features=192, out_features=192, bias=True)
          (W_K): Linear(in_features=192, out_features=192, bias=True)
          (W_V): Linear(in_features=192, out_features=192, bias=True)
          (W_O): Linear(in_features=192, out_features=192, bias=True)
          (dropout): Dropout(p=0.1, inplace=False)
        )
        (feed_forward): FeedForward(
          (ffn_1): Linear(in_features=192, out_features=1024, bias=True)
          (ffn_2): Linear(in_features=1024, out_features=192, bias=True)
          (act): ReLU()
          (dropout): Dropout(p=0.1, inplace=False)
        )
        (reduction): Linear(in_features=192, out_features=96, bias=True)
        (norm1): LayerNorm()
        (norm2): LayerNorm()
        (dropout1): Dropout(p=0.1, inplace=False)
        (dropout2): Dropout(p=0.1, inplace=False)
      )
    )
    (adaptor): Adaptor(
      (fc1): Linear(in_features=7392, out_features=4096, bias=True)
      (ln_fc1): LayerNorm((4096,), eps=1e-05, elementwise_affine=True)
      (fc2): Linear(in_features=4096, out_features=4096, bias=True)
      (ln_fc2): LayerNorm((4096,), eps=1e-05, elementwise_affine=True)
      (conv1): Conv2d(1, 32, kernel_size=(3, 3), stride=(1, 1), padding=(1, 1))
      (ln_conv1): LayerNorm((32, 64, 64), eps=1e-05, elementwise_affine=True)
      (conv2): Conv2d(32, 64, kernel_size=(3, 3), stride=(1, 1), padding=(1, 1))
      (ln_conv2): LayerNorm((64, 64, 64), eps=1e-05, elementwise_affine=True)
      (conv3): Conv2d(64, 8, kernel_size=(3, 3), stride=(1, 1), padding=(1, 1))
    )
  )
  (open_clip): CustomTextCLIP(
    (visual): TimmModel(
      (trunk): VisionTransformer(
        (patch_embed): PatchEmbed(
          (proj): Conv2d(3, 1024, kernel_size=(16, 16), stride=(16, 16))
          (norm): Identity()
        )
        (pos_drop): Dropout(p=0.0, inplace=False)
        (patch_drop): Identity()
        (norm_pre): Identity()
        (blocks): Sequential(
          (0): Block(
            (norm1): LayerNorm((1024,), eps=1e-06, elementwise_affine=True)
            (attn): Attention(
              (qkv): Linear(in_features=1024, out_features=3072, bias=True)
              (q_norm): Identity()
              (k_norm): Identity()
              (attn_drop): Dropout(p=0.0, inplace=False)
              (proj): Linear(in_features=1024, out_features=1024, bias=True)
              (proj_drop): Dropout(p=0.0, inplace=False)
            )
            (ls1): Identity()
            (drop_path1): Identity()
            (norm2): LayerNorm((1024,), eps=1e-06, elementwise_affine=True)
            (mlp): Mlp(
              (fc1): Linear(in_features=1024, out_features=4096, bias=True)
              (act): GELU(approximate='none')
              (drop1): Dropout(p=0.0, inplace=False)
              (norm): Identity()
              (fc2): Linear(in_features=4096, out_features=1024, bias=True)
              (drop2): Dropout(p=0.0, inplace=False)
            )
            (ls2): Identity()
            (drop_path2): Identity()
          )
          (1): Block(
            (norm1): LayerNorm((1024,), eps=1e-06, elementwise_affine=True)
            (attn): Attention(
              (qkv): Linear(in_features=1024, out_features=3072, bias=True)
              (q_norm): Identity()
              (k_norm): Identity()
              (attn_drop): Dropout(p=0.0, inplace=False)
              (proj): Linear(in_features=1024, out_features=1024, bias=True)
              (proj_drop): Dropout(p=0.0, inplace=False)
            )
            (ls1): Identity()
            (drop_path1): Identity()
            (norm2): LayerNorm((1024,), eps=1e-06, elementwise_affine=True)
            (mlp): Mlp(
              (fc1): Linear(in_features=1024, out_features=4096, bias=True)
              (act): GELU(approximate='none')
              (drop1): Dropout(p=0.0, inplace=False)
              (norm): Identity()
              (fc2): Linear(in_features=4096, out_features=1024, bias=True)
              (drop2): Dropout(p=0.0, inplace=False)
            )
            (ls2): Identity()
            (drop_path2): Identity()
          )
          (2): Block(
            (norm1): LayerNorm((1024,), eps=1e-06, elementwise_affine=True)
            (attn): Attention(
              (qkv): Linear(in_features=1024, out_features=3072, bias=True)
              (q_norm): Identity()
              (k_norm): Identity()
              (attn_drop): Dropout(p=0.0, inplace=False)
              (proj): Linear(in_features=1024, out_features=1024, bias=True)
              (proj_drop): Dropout(p=0.0, inplace=False)
            )
            (ls1): Identity()
            (drop_path1): Identity()
            (norm2): LayerNorm((1024,), eps=1e-06, elementwise_affine=True)
            (mlp): Mlp(
              (fc1): Linear(in_features=1024, out_features=4096, bias=True)
              (act): GELU(approximate='none')
              (drop1): Dropout(p=0.0, inplace=False)
              (norm): Identity()
              (fc2): Linear(in_features=4096, out_features=1024, bias=True)
              (drop2): Dropout(p=0.0, inplace=False)
            )
            (ls2): Identity()
            (drop_path2): Identity()
          )
          (3): Block(
            (norm1): LayerNorm((1024,), eps=1e-06, elementwise_affine=True)
            (attn): Attention(
              (qkv): Linear(in_features=1024, out_features=3072, bias=True)
              (q_norm): Identity()
              (k_norm): Identity()
              (attn_drop): Dropout(p=0.0, inplace=False)
              (proj): Linear(in_features=1024, out_features=1024, bias=True)
              (proj_drop): Dropout(p=0.0, inplace=False)
            )
            (ls1): Identity()
            (drop_path1): Identity()
            (norm2): LayerNorm((1024,), eps=1e-06, elementwise_affine=True)
            (mlp): Mlp(
              (fc1): Linear(in_features=1024, out_features=4096, bias=True)
              (act): GELU(approximate='none')
              (drop1): Dropout(p=0.0, inplace=False)
              (norm): Identity()
              (fc2): Linear(in_features=4096, out_features=1024, bias=True)
              (drop2): Dropout(p=0.0, inplace=False)
            )
            (ls2): Identity()
            (drop_path2): Identity()
          )
          (4): Block(
            (norm1): LayerNorm((1024,), eps=1e-06, elementwise_affine=True)
            (attn): Attention(
              (qkv): Linear(in_features=1024, out_features=3072, bias=True)
              (q_norm): Identity()
              (k_norm): Identity()
              (attn_drop): Dropout(p=0.0, inplace=False)
              (proj): Linear(in_features=1024, out_features=1024, bias=True)
              (proj_drop): Dropout(p=0.0, inplace=False)
            )
            (ls1): Identity()
            (drop_path1): Identity()
            (norm2): LayerNorm((1024,), eps=1e-06, elementwise_affine=True)
            (mlp): Mlp(
              (fc1): Linear(in_features=1024, out_features=4096, bias=True)
              (act): GELU(approximate='none')
              (drop1): Dropout(p=0.0, inplace=False)
              (norm): Identity()
              (fc2): Linear(in_features=4096, out_features=1024, bias=True)
              (drop2): Dropout(p=0.0, inplace=False)
            )
            (ls2): Identity()
            (drop_path2): Identity()
          )
          (5): Block(
            (norm1): LayerNorm((1024,), eps=1e-06, elementwise_affine=True)
            (attn): Attention(
              (qkv): Linear(in_features=1024, out_features=3072, bias=True)
              (q_norm): Identity()
              (k_norm): Identity()
              (attn_drop): Dropout(p=0.0, inplace=False)
              (proj): Linear(in_features=1024, out_features=1024, bias=True)
              (proj_drop): Dropout(p=0.0, inplace=False)
            )
            (ls1): Identity()
            (drop_path1): Identity()
            (norm2): LayerNorm((1024,), eps=1e-06, elementwise_affine=True)
            (mlp): Mlp(
              (fc1): Linear(in_features=1024, out_features=4096, bias=True)
              (act): GELU(approximate='none')
              (drop1): Dropout(p=0.0, inplace=False)
              (norm): Identity()
              (fc2): Linear(in_features=4096, out_features=1024, bias=True)
              (drop2): Dropout(p=0.0, inplace=False)
            )
            (ls2): Identity()
            (drop_path2): Identity()
          )
          (6): Block(
            (norm1): LayerNorm((1024,), eps=1e-06, elementwise_affine=True)
            (attn): Attention(
              (qkv): Linear(in_features=1024, out_features=3072, bias=True)
              (q_norm): Identity()
              (k_norm): Identity()
              (attn_drop): Dropout(p=0.0, inplace=False)
              (proj): Linear(in_features=1024, out_features=1024, bias=True)
              (proj_drop): Dropout(p=0.0, inplace=False)
            )
            (ls1): Identity()
            (drop_path1): Identity()
            (norm2): LayerNorm((1024,), eps=1e-06, elementwise_affine=True)
            (mlp): Mlp(
              (fc1): Linear(in_features=1024, out_features=4096, bias=True)
              (act): GELU(approximate='none')
              (drop1): Dropout(p=0.0, inplace=False)
              (norm): Identity()
              (fc2): Linear(in_features=4096, out_features=1024, bias=True)
              (drop2): Dropout(p=0.0, inplace=False)
            )
            (ls2): Identity()
            (drop_path2): Identity()
          )
          (7): Block(
            (norm1): LayerNorm((1024,), eps=1e-06, elementwise_affine=True)
            (attn): Attention(
              (qkv): Linear(in_features=1024, out_features=3072, bias=True)
              (q_norm): Identity()
              (k_norm): Identity()
              (attn_drop): Dropout(p=0.0, inplace=False)
              (proj): Linear(in_features=1024, out_features=1024, bias=True)
              (proj_drop): Dropout(p=0.0, inplace=False)
            )
            (ls1): Identity()
            (drop_path1): Identity()
            (norm2): LayerNorm((1024,), eps=1e-06, elementwise_affine=True)
            (mlp): Mlp(
              (fc1): Linear(in_features=1024, out_features=4096, bias=True)
              (act): GELU(approximate='none')
              (drop1): Dropout(p=0.0, inplace=False)
              (norm): Identity()
              (fc2): Linear(in_features=4096, out_features=1024, bias=True)
              (drop2): Dropout(p=0.0, inplace=False)
            )
            (ls2): Identity()
            (drop_path2): Identity()
          )
          (8): Block(
            (norm1): LayerNorm((1024,), eps=1e-06, elementwise_affine=True)
            (attn): Attention(
              (qkv): Linear(in_features=1024, out_features=3072, bias=True)
              (q_norm): Identity()
              (k_norm): Identity()
              (attn_drop): Dropout(p=0.0, inplace=False)
              (proj): Linear(in_features=1024, out_features=1024, bias=True)
              (proj_drop): Dropout(p=0.0, inplace=False)
            )
            (ls1): Identity()
            (drop_path1): Identity()
            (norm2): LayerNorm((1024,), eps=1e-06, elementwise_affine=True)
            (mlp): Mlp(
              (fc1): Linear(in_features=1024, out_features=4096, bias=True)
              (act): GELU(approximate='none')
              (drop1): Dropout(p=0.0, inplace=False)
              (norm): Identity()
              (fc2): Linear(in_features=4096, out_features=1024, bias=True)
              (drop2): Dropout(p=0.0, inplace=False)
            )
            (ls2): Identity()
            (drop_path2): Identity()
          )
          (9): Block(
            (norm1): LayerNorm((1024,), eps=1e-06, elementwise_affine=True)
            (attn): Attention(
              (qkv): Linear(in_features=1024, out_features=3072, bias=True)
              (q_norm): Identity()
              (k_norm): Identity()
              (attn_drop): Dropout(p=0.0, inplace=False)
              (proj): Linear(in_features=1024, out_features=1024, bias=True)
              (proj_drop): Dropout(p=0.0, inplace=False)
            )
            (ls1): Identity()
            (drop_path1): Identity()
            (norm2): LayerNorm((1024,), eps=1e-06, elementwise_affine=True)
            (mlp): Mlp(
              (fc1): Linear(in_features=1024, out_features=4096, bias=True)
              (act): GELU(approximate='none')
              (drop1): Dropout(p=0.0, inplace=False)
              (norm): Identity()
              (fc2): Linear(in_features=4096, out_features=1024, bias=True)
              (drop2): Dropout(p=0.0, inplace=False)
            )
            (ls2): Identity()
            (drop_path2): Identity()
          )
          (10): Block(
            (norm1): LayerNorm((1024,), eps=1e-06, elementwise_affine=True)
            (attn): Attention(
              (qkv): Linear(in_features=1024, out_features=3072, bias=True)
              (q_norm): Identity()
              (k_norm): Identity()
              (attn_drop): Dropout(p=0.0, inplace=False)
              (proj): Linear(in_features=1024, out_features=1024, bias=True)
              (proj_drop): Dropout(p=0.0, inplace=False)
            )
            (ls1): Identity()
            (drop_path1): Identity()
            (norm2): LayerNorm((1024,), eps=1e-06, elementwise_affine=True)
            (mlp): Mlp(
              (fc1): Linear(in_features=1024, out_features=4096, bias=True)
              (act): GELU(approximate='none')
              (drop1): Dropout(p=0.0, inplace=False)
              (norm): Identity()
              (fc2): Linear(in_features=4096, out_features=1024, bias=True)
              (drop2): Dropout(p=0.0, inplace=False)
            )
            (ls2): Identity()
            (drop_path2): Identity()
          )
          (11): Block(
            (norm1): LayerNorm((1024,), eps=1e-06, elementwise_affine=True)
            (attn): Attention(
              (qkv): Linear(in_features=1024, out_features=3072, bias=True)
              (q_norm): Identity()
              (k_norm): Identity()
              (attn_drop): Dropout(p=0.0, inplace=False)
              (proj): Linear(in_features=1024, out_features=1024, bias=True)
              (proj_drop): Dropout(p=0.0, inplace=False)
            )
            (ls1): Identity()
            (drop_path1): Identity()
            (norm2): LayerNorm((1024,), eps=1e-06, elementwise_affine=True)
            (mlp): Mlp(
              (fc1): Linear(in_features=1024, out_features=4096, bias=True)
              (act): GELU(approximate='none')
              (drop1): Dropout(p=0.0, inplace=False)
              (norm): Identity()
              (fc2): Linear(in_features=4096, out_features=1024, bias=True)
              (drop2): Dropout(p=0.0, inplace=False)
            )
            (ls2): Identity()
            (drop_path2): Identity()
          )
          (12): Block(
            (norm1): LayerNorm((1024,), eps=1e-06, elementwise_affine=True)
            (attn): Attention(
              (qkv): Linear(in_features=1024, out_features=3072, bias=True)
              (q_norm): Identity()
              (k_norm): Identity()
              (attn_drop): Dropout(p=0.0, inplace=False)
              (proj): Linear(in_features=1024, out_features=1024, bias=True)
              (proj_drop): Dropout(p=0.0, inplace=False)
            )
            (ls1): Identity()
            (drop_path1): Identity()
            (norm2): LayerNorm((1024,), eps=1e-06, elementwise_affine=True)
            (mlp): Mlp(
              (fc1): Linear(in_features=1024, out_features=4096, bias=True)
              (act): GELU(approximate='none')
              (drop1): Dropout(p=0.0, inplace=False)
              (norm): Identity()
              (fc2): Linear(in_features=4096, out_features=1024, bias=True)
              (drop2): Dropout(p=0.0, inplace=False)
            )
            (ls2): Identity()
            (drop_path2): Identity()
          )
          (13): Block(
            (norm1): LayerNorm((1024,), eps=1e-06, elementwise_affine=True)
            (attn): Attention(
              (qkv): Linear(in_features=1024, out_features=3072, bias=True)
              (q_norm): Identity()
              (k_norm): Identity()
              (attn_drop): Dropout(p=0.0, inplace=False)
              (proj): Linear(in_features=1024, out_features=1024, bias=True)
              (proj_drop): Dropout(p=0.0, inplace=False)
            )
            (ls1): Identity()
            (drop_path1): Identity()
            (norm2): LayerNorm((1024,), eps=1e-06, elementwise_affine=True)
            (mlp): Mlp(
              (fc1): Linear(in_features=1024, out_features=4096, bias=True)
              (act): GELU(approximate='none')
              (drop1): Dropout(p=0.0, inplace=False)
              (norm): Identity()
              (fc2): Linear(in_features=4096, out_features=1024, bias=True)
              (drop2): Dropout(p=0.0, inplace=False)
            )
            (ls2): Identity()
            (drop_path2): Identity()
          )
          (14): Block(
            (norm1): LayerNorm((1024,), eps=1e-06, elementwise_affine=True)
            (attn): Attention(
              (qkv): Linear(in_features=1024, out_features=3072, bias=True)
              (q_norm): Identity()
              (k_norm): Identity()
              (attn_drop): Dropout(p=0.0, inplace=False)
              (proj): Linear(in_features=1024, out_features=1024, bias=True)
              (proj_drop): Dropout(p=0.0, inplace=False)
            )
            (ls1): Identity()
            (drop_path1): Identity()
            (norm2): LayerNorm((1024,), eps=1e-06, elementwise_affine=True)
            (mlp): Mlp(
              (fc1): Linear(in_features=1024, out_features=4096, bias=True)
              (act): GELU(approximate='none')
              (drop1): Dropout(p=0.0, inplace=False)
              (norm): Identity()
              (fc2): Linear(in_features=4096, out_features=1024, bias=True)
              (drop2): Dropout(p=0.0, inplace=False)
            )
            (ls2): Identity()
            (drop_path2): Identity()
          )
          (15): Block(
            (norm1): LayerNorm((1024,), eps=1e-06, elementwise_affine=True)
            (attn): Attention(
              (qkv): Linear(in_features=1024, out_features=3072, bias=True)
              (q_norm): Identity()
              (k_norm): Identity()
              (attn_drop): Dropout(p=0.0, inplace=False)
              (proj): Linear(in_features=1024, out_features=1024, bias=True)
              (proj_drop): Dropout(p=0.0, inplace=False)
            )
            (ls1): Identity()
            (drop_path1): Identity()
            (norm2): LayerNorm((1024,), eps=1e-06, elementwise_affine=True)
            (mlp): Mlp(
              (fc1): Linear(in_features=1024, out_features=4096, bias=True)
              (act): GELU(approximate='none')
              (drop1): Dropout(p=0.0, inplace=False)
              (norm): Identity()
              (fc2): Linear(in_features=4096, out_features=1024, bias=True)
              (drop2): Dropout(p=0.0, inplace=False)
            )
            (ls2): Identity()
            (drop_path2): Identity()
          )
          (16): Block(
            (norm1): LayerNorm((1024,), eps=1e-06, elementwise_affine=True)
            (attn): Attention(
              (qkv): Linear(in_features=1024, out_features=3072, bias=True)
              (q_norm): Identity()
              (k_norm): Identity()
              (attn_drop): Dropout(p=0.0, inplace=False)
              (proj): Linear(in_features=1024, out_features=1024, bias=True)
              (proj_drop): Dropout(p=0.0, inplace=False)
            )
            (ls1): Identity()
            (drop_path1): Identity()
            (norm2): LayerNorm((1024,), eps=1e-06, elementwise_affine=True)
            (mlp): Mlp(
              (fc1): Linear(in_features=1024, out_features=4096, bias=True)
              (act): GELU(approximate='none')
              (drop1): Dropout(p=0.0, inplace=False)
              (norm): Identity()
              (fc2): Linear(in_features=4096, out_features=1024, bias=True)
              (drop2): Dropout(p=0.0, inplace=False)
            )
            (ls2): Identity()
            (drop_path2): Identity()
          )
          (17): Block(
            (norm1): LayerNorm((1024,), eps=1e-06, elementwise_affine=True)
            (attn): Attention(
              (qkv): Linear(in_features=1024, out_features=3072, bias=True)
              (q_norm): Identity()
              (k_norm): Identity()
              (attn_drop): Dropout(p=0.0, inplace=False)
              (proj): Linear(in_features=1024, out_features=1024, bias=True)
              (proj_drop): Dropout(p=0.0, inplace=False)
            )
            (ls1): Identity()
            (drop_path1): Identity()
            (norm2): LayerNorm((1024,), eps=1e-06, elementwise_affine=True)
            (mlp): Mlp(
              (fc1): Linear(in_features=1024, out_features=4096, bias=True)
              (act): GELU(approximate='none')
              (drop1): Dropout(p=0.0, inplace=False)
              (norm): Identity()
              (fc2): Linear(in_features=4096, out_features=1024, bias=True)
              (drop2): Dropout(p=0.0, inplace=False)
            )
            (ls2): Identity()
            (drop_path2): Identity()
          )
          (18): Block(
            (norm1): LayerNorm((1024,), eps=1e-06, elementwise_affine=True)
            (attn): Attention(
              (qkv): Linear(in_features=1024, out_features=3072, bias=True)
              (q_norm): Identity()
              (k_norm): Identity()
              (attn_drop): Dropout(p=0.0, inplace=False)
              (proj): Linear(in_features=1024, out_features=1024, bias=True)
              (proj_drop): Dropout(p=0.0, inplace=False)
            )
            (ls1): Identity()
            (drop_path1): Identity()
            (norm2): LayerNorm((1024,), eps=1e-06, elementwise_affine=True)
            (mlp): Mlp(
              (fc1): Linear(in_features=1024, out_features=4096, bias=True)
              (act): GELU(approximate='none')
              (drop1): Dropout(p=0.0, inplace=False)
              (norm): Identity()
              (fc2): Linear(in_features=4096, out_features=1024, bias=True)
              (drop2): Dropout(p=0.0, inplace=False)
            )
            (ls2): Identity()
            (drop_path2): Identity()
          )
          (19): Block(
            (norm1): LayerNorm((1024,), eps=1e-06, elementwise_affine=True)
            (attn): Attention(
              (qkv): Linear(in_features=1024, out_features=3072, bias=True)
              (q_norm): Identity()
              (k_norm): Identity()
              (attn_drop): Dropout(p=0.0, inplace=False)
              (proj): Linear(in_features=1024, out_features=1024, bias=True)
              (proj_drop): Dropout(p=0.0, inplace=False)
            )
            (ls1): Identity()
            (drop_path1): Identity()
            (norm2): LayerNorm((1024,), eps=1e-06, elementwise_affine=True)
            (mlp): Mlp(
              (fc1): Linear(in_features=1024, out_features=4096, bias=True)
              (act): GELU(approximate='none')
              (drop1): Dropout(p=0.0, inplace=False)
              (norm): Identity()
              (fc2): Linear(in_features=4096, out_features=1024, bias=True)
              (drop2): Dropout(p=0.0, inplace=False)
            )
            (ls2): Identity()
            (drop_path2): Identity()
          )
          (20): Block(
            (norm1): LayerNorm((1024,), eps=1e-06, elementwise_affine=True)
            (attn): Attention(
              (qkv): Linear(in_features=1024, out_features=3072, bias=True)
              (q_norm): Identity()
              (k_norm): Identity()
              (attn_drop): Dropout(p=0.0, inplace=False)
              (proj): Linear(in_features=1024, out_features=1024, bias=True)
              (proj_drop): Dropout(p=0.0, inplace=False)
            )
            (ls1): Identity()
            (drop_path1): Identity()
            (norm2): LayerNorm((1024,), eps=1e-06, elementwise_affine=True)
            (mlp): Mlp(
              (fc1): Linear(in_features=1024, out_features=4096, bias=True)
              (act): GELU(approximate='none')
              (drop1): Dropout(p=0.0, inplace=False)
              (norm): Identity()
              (fc2): Linear(in_features=4096, out_features=1024, bias=True)
              (drop2): Dropout(p=0.0, inplace=False)
            )
            (ls2): Identity()
            (drop_path2): Identity()
          )
          (21): Block(
            (norm1): LayerNorm((1024,), eps=1e-06, elementwise_affine=True)
            (attn): Attention(
              (qkv): Linear(in_features=1024, out_features=3072, bias=True)
              (q_norm): Identity()
              (k_norm): Identity()
              (attn_drop): Dropout(p=0.0, inplace=False)
              (proj): Linear(in_features=1024, out_features=1024, bias=True)
              (proj_drop): Dropout(p=0.0, inplace=False)
            )
            (ls1): Identity()
            (drop_path1): Identity()
            (norm2): LayerNorm((1024,), eps=1e-06, elementwise_affine=True)
            (mlp): Mlp(
              (fc1): Linear(in_features=1024, out_features=4096, bias=True)
              (act): GELU(approximate='none')
              (drop1): Dropout(p=0.0, inplace=False)
              (norm): Identity()
              (fc2): Linear(in_features=4096, out_features=1024, bias=True)
              (drop2): Dropout(p=0.0, inplace=False)
            )
            (ls2): Identity()
            (drop_path2): Identity()
          )
          (22): Block(
            (norm1): LayerNorm((1024,), eps=1e-06, elementwise_affine=True)
            (attn): Attention(
              (qkv): Linear(in_features=1024, out_features=3072, bias=True)
              (q_norm): Identity()
              (k_norm): Identity()
              (attn_drop): Dropout(p=0.0, inplace=False)
              (proj): Linear(in_features=1024, out_features=1024, bias=True)
              (proj_drop): Dropout(p=0.0, inplace=False)
            )
            (ls1): Identity()
            (drop_path1): Identity()
            (norm2): LayerNorm((1024,), eps=1e-06, elementwise_affine=True)
            (mlp): Mlp(
              (fc1): Linear(in_features=1024, out_features=4096, bias=True)
              (act): GELU(approximate='none')
              (drop1): Dropout(p=0.0, inplace=False)
              (norm): Identity()
              (fc2): Linear(in_features=4096, out_features=1024, bias=True)
              (drop2): Dropout(p=0.0, inplace=False)
            )
            (ls2): Identity()
            (drop_path2): Identity()
          )
          (23): Block(
            (norm1): LayerNorm((1024,), eps=1e-06, elementwise_affine=True)
            (attn): Attention(
              (qkv): Linear(in_features=1024, out_features=3072, bias=True)
              (q_norm): Identity()
              (k_norm): Identity()
              (attn_drop): Dropout(p=0.0, inplace=False)
              (proj): Linear(in_features=1024, out_features=1024, bias=True)
              (proj_drop): Dropout(p=0.0, inplace=False)
            )
            (ls1): Identity()
            (drop_path1): Identity()
            (norm2): LayerNorm((1024,), eps=1e-06, elementwise_affine=True)
            (mlp): Mlp(
              (fc1): Linear(in_features=1024, out_features=4096, bias=True)
              (act): GELU(approximate='none')
              (drop1): Dropout(p=0.0, inplace=False)
              (norm): Identity()
              (fc2): Linear(in_features=4096, out_features=1024, bias=True)
              (drop2): Dropout(p=0.0, inplace=False)
            )
            (ls2): Identity()
            (drop_path2): Identity()
          )
        )
        (norm): LayerNorm((1024,), eps=1e-06, elementwise_affine=True)
        (attn_pool): AttentionPoolLatent(
          (q): Linear(in_features=1024, out_features=1024, bias=True)
          (kv): Linear(in_features=1024, out_features=2048, bias=True)
          (q_norm): Identity()
          (k_norm): Identity()
          (proj): Linear(in_features=1024, out_features=1024, bias=True)
          (proj_drop): Dropout(p=0.0, inplace=False)
          (norm): LayerNorm((1024,), eps=1e-06, elementwise_affine=True)
          (mlp): Mlp(
            (fc1): Linear(in_features=1024, out_features=4096, bias=True)
            (act): GELU(approximate='none')
            (drop1): Dropout(p=0.0, inplace=False)
            (norm): Identity()
            (fc2): Linear(in_features=4096, out_features=1024, bias=True)
            (drop2): Dropout(p=0.0, inplace=False)
          )
        )
        (fc_norm): Identity()
        (head_drop): Dropout(p=0.0, inplace=False)
        (head): Identity()
      )
      (head): Sequential()
    )
  )
  (open_clip_output): Adaptor(
    (fc1): Linear(in_features=1024, out_features=4096, bias=True)
    (ln_fc1): LayerNorm((4096,), eps=1e-05, elementwise_affine=True)
    (fc2): Linear(in_features=4096, out_features=4096, bias=True)
    (ln_fc2): LayerNorm((4096,), eps=1e-05, elementwise_affine=True)
    (conv1): Conv2d(1, 32, kernel_size=(3, 3), stride=(1, 1), padding=(1, 1))
    (ln_conv1): LayerNorm((32, 64, 64), eps=1e-05, elementwise_affine=True)
    (conv2): Conv2d(32, 64, kernel_size=(3, 3), stride=(1, 1), padding=(1, 1))
    (ln_conv2): LayerNorm((64, 64, 64), eps=1e-05, elementwise_affine=True)
    (conv3): Conv2d(64, 4, kernel_size=(3, 3), stride=(1, 1), padding=(1, 1))
  )
)
train_state.nnet_ema: MRModel(
  (stages): ModuleList(
    (0): Stage(
      (input_layer): Sequential(
        (0): DownInterpolate(ratio=1)
        (1): Conv2d(4, 960, kernel_size=(4, 4), stride=(4, 4))
        (2): ChannelLast()
        (3): PositionEmbeddings(
          (position_embeddings): Embedding(256, 960)
        )
      )
      (blocks): ModuleList(
        (0-28): 29 x TransformerBlock(
          (block1): SelfAttention(
            (norm): TDRMSNorm(
              (scale): TimeDependentParameter(shape=(960,))
            )
            (query_key_value): Linear(in_features=960, out_features=2880, bias=False)
            (dense): Linear(in_features=960, out_features=960, bias=True)
          )
          (block2): MLPBlock(
            (norm): TDRMSNorm(
              (scale): TimeDependentParameter(shape=(960,))
            )
            (act): GELU(approximate='none')
            (w0): Linear(in_features=960, out_features=1920, bias=True)
            (w1): Linear(in_features=960, out_features=1920, bias=True)
            (w2): Linear(in_features=1920, out_features=960, bias=True)
          )
          (dropout): Dropout(p=0, inplace=False)
        )
      )
      (skip_denses): ModuleList(
        (0-13): 14 x Linear(in_features=1920, out_features=960, bias=True)
      )
      (output_layer): Sequential(
        (0): LayerNorm(
          (weight): TimeDependentParameter(shape=(960,))
          (bias): TimeDependentParameter(shape=(960,))
        )
        (1): ChannelFirst()
        (2): Conv2d(960, 4, kernel_size=(3, 3), stride=(1, 1), padding=(1, 1))
      )
    )
    (1): Stage(
      (input_layer): Sequential(
        (0): DownInterpolate(ratio=1)
        (1): Conv2d(4, 480, kernel_size=(2, 2), stride=(2, 2))
        (2): ChannelLast()
        (3): PositionEmbeddings(
          (position_embeddings): Embedding(1024, 480)
        )
      )
      (upsample): Sequential(
        (0): LayerNorm(
          (weight): TimeDependentParameter(shape=(28800,))
          (bias): TimeDependentParameter(shape=(28800,))
        )
        (1): PixelShuffleUpsample(
          (kernel): Linear(in_features=28800, out_features=1920, bias=True)
        )
        (2): LayerNorm(
          (weight): TimeDependentParameter(shape=(480,))
          (bias): TimeDependentParameter(shape=(480,))
        )
      )
      (blocks): ModuleList(
        (0-14): 15 x ConvNeXtBlock(
          (block1): Sequential(
            (0): ChannelFirst()
            (1): Conv2d(480, 480, kernel_size=(7, 7), stride=(1, 1), padding=(3, 3), groups=480)
            (2): ChannelLast()
          )
          (block2): MLPBlock(
            (norm): TDRMSNorm(
              (scale): TimeDependentParameter(shape=(480,))
            )
            (act): GELU(approximate='none')
            (w0): Linear(in_features=480, out_features=960, bias=True)
            (w1): Linear(in_features=480, out_features=960, bias=True)
            (w2): Linear(in_features=960, out_features=480, bias=True)
          )
          (dropout): Dropout(p=0, inplace=False)
        )
      )
      (skip_denses): ModuleList(
        (0-6): 7 x Linear(in_features=960, out_features=480, bias=True)
      )
      (output_layer): Sequential(
        (0): LayerNorm(
          (weight): TimeDependentParameter(shape=(480,))
          (bias): TimeDependentParameter(shape=(480,))
        )
        (1): ChannelFirst()
        (2): Conv2d(480, 4, kernel_size=(3, 3), stride=(1, 1), padding=(1, 1))
      )
    )
    (2): Stage(
      (input_layer): Sequential(
        (0): DownInterpolate(ratio=1)
        (1): Conv2d(4, 240, kernel_size=(1, 1), stride=(1, 1))
        (2): ChannelLast()
        (3): PositionEmbeddings(
          (position_embeddings): Embedding(4096, 240)
        )
      )
      (upsample): Sequential(
        (0): LayerNorm(
          (weight): TimeDependentParameter(shape=(7680,))
          (bias): TimeDependentParameter(shape=(7680,))
        )
        (1): PixelShuffleUpsample(
          (kernel): Linear(in_features=7680, out_features=960, bias=True)
        )
        (2): LayerNorm(
          (weight): TimeDependentParameter(shape=(240,))
          (bias): TimeDependentParameter(shape=(240,))
        )
      )
      (blocks): ModuleList(
        (0-14): 15 x ConvNeXtBlock(
          (block1): Sequential(
            (0): ChannelFirst()
            (1): Conv2d(240, 240, kernel_size=(7, 7), stride=(1, 1), padding=(3, 3), groups=240)
            (2): ChannelLast()
          )
          (block2): MLPBlock(
            (norm): TDRMSNorm(
              (scale): TimeDependentParameter(shape=(240,))
            )
            (act): GELU(approximate='none')
            (w0): Linear(in_features=240, out_features=480, bias=True)
            (w1): Linear(in_features=240, out_features=480, bias=True)
            (w2): Linear(in_features=480, out_features=240, bias=True)
          )
          (dropout): Dropout(p=0, inplace=False)
        )
      )
      (skip_denses): ModuleList(
        (0-6): 7 x Linear(in_features=480, out_features=240, bias=True)
      )
      (output_layer): Sequential(
        (0): LayerNorm(
          (weight): TimeDependentParameter(shape=(240,))
          (bias): TimeDependentParameter(shape=(240,))
        )
        (1): ChannelFirst()
        (2): Conv2d(240, 4, kernel_size=(3, 3), stride=(1, 1), padding=(1, 1))
      )
    )
  )
  (context_encoder): TransEncoder(
    (compressor): Compressor(
      (fc1): Linear(in_features=2048, out_features=768, bias=True)
      (ln_fc1): LayerNorm((768,), eps=1e-05, elementwise_affine=True)
      (fc2): Linear(in_features=768, out_features=768, bias=True)
    )
    (layers): ModuleList(
      (0-10): 11 x EncoderLayer(
        (attn): MultiHeadAttentioin(
          (W_Q): Linear(in_features=768, out_features=768, bias=True)
          (W_K): Linear(in_features=768, out_features=768, bias=True)
          (W_V): Linear(in_features=768, out_features=768, bias=True)
          (W_O): Linear(in_features=768, out_features=768, bias=True)
          (dropout): Dropout(p=0.1, inplace=False)
        )
        (feed_forward): FeedForward(
          (ffn_1): Linear(in_features=768, out_features=1024, bias=True)
          (ffn_2): Linear(in_features=1024, out_features=768, bias=True)
          (act): ReLU()
          (dropout): Dropout(p=0.1, inplace=False)
        )
        (norm1): LayerNorm()
        (norm2): LayerNorm()
        (dropout1): Dropout(p=0.1, inplace=False)
        (dropout2): Dropout(p=0.1, inplace=False)
      )
    )
    (reduction_layers): ModuleList(
      (0): EncoderReductionLayer(
        (attn): MultiHeadAttentioin(
          (W_Q): Linear(in_features=768, out_features=768, bias=True)
          (W_K): Linear(in_features=768, out_features=768, bias=True)
          (W_V): Linear(in_features=768, out_features=768, bias=True)
          (W_O): Linear(in_features=768, out_features=768, bias=True)
          (dropout): Dropout(p=0.1, inplace=False)
        )
        (feed_forward): FeedForward(
          (ffn_1): Linear(in_features=768, out_features=1024, bias=True)
          (ffn_2): Linear(in_features=1024, out_features=768, bias=True)
          (act): ReLU()
          (dropout): Dropout(p=0.1, inplace=False)
        )
        (reduction): Linear(in_features=768, out_features=384, bias=True)
        (norm1): LayerNorm()
        (norm2): LayerNorm()
        (dropout1): Dropout(p=0.1, inplace=False)
        (dropout2): Dropout(p=0.1, inplace=False)
      )
      (1): EncoderReductionLayer(
        (attn): MultiHeadAttentioin(
          (W_Q): Linear(in_features=384, out_features=384, bias=True)
          (W_K): Linear(in_features=384, out_features=384, bias=True)
          (W_V): Linear(in_features=384, out_features=384, bias=True)
          (W_O): Linear(in_features=384, out_features=384, bias=True)
          (dropout): Dropout(p=0.1, inplace=False)
        )
        (feed_forward): FeedForward(
          (ffn_1): Linear(in_features=384, out_features=1024, bias=True)
          (ffn_2): Linear(in_features=1024, out_features=384, bias=True)
          (act): ReLU()
          (dropout): Dropout(p=0.1, inplace=False)
        )
        (reduction): Linear(in_features=384, out_features=192, bias=True)
        (norm1): LayerNorm()
        (norm2): LayerNorm()
        (dropout1): Dropout(p=0.1, inplace=False)
        (dropout2): Dropout(p=0.1, inplace=False)
      )
      (2): EncoderReductionLayer(
        (attn): MultiHeadAttentioin(
          (W_Q): Linear(in_features=192, out_features=192, bias=True)
          (W_K): Linear(in_features=192, out_features=192, bias=True)
          (W_V): Linear(in_features=192, out_features=192, bias=True)
          (W_O): Linear(in_features=192, out_features=192, bias=True)
          (dropout): Dropout(p=0.1, inplace=False)
        )
        (feed_forward): FeedForward(
          (ffn_1): Linear(in_features=192, out_features=1024, bias=True)
          (ffn_2): Linear(in_features=1024, out_features=192, bias=True)
          (act): ReLU()
          (dropout): Dropout(p=0.1, inplace=False)
        )
        (reduction): Linear(in_features=192, out_features=96, bias=True)
        (norm1): LayerNorm()
        (norm2): LayerNorm()
        (dropout1): Dropout(p=0.1, inplace=False)
        (dropout2): Dropout(p=0.1, inplace=False)
      )
    )
    (adaptor): Adaptor(
      (fc1): Linear(in_features=7392, out_features=4096, bias=True)
      (ln_fc1): LayerNorm((4096,), eps=1e-05, elementwise_affine=True)
      (fc2): Linear(in_features=4096, out_features=4096, bias=True)
      (ln_fc2): LayerNorm((4096,), eps=1e-05, elementwise_affine=True)
      (conv1): Conv2d(1, 32, kernel_size=(3, 3), stride=(1, 1), padding=(1, 1))
      (ln_conv1): LayerNorm((32, 64, 64), eps=1e-05, elementwise_affine=True)
      (conv2): Conv2d(32, 64, kernel_size=(3, 3), stride=(1, 1), padding=(1, 1))
      (ln_conv2): LayerNorm((64, 64, 64), eps=1e-05, elementwise_affine=True)
      (conv3): Conv2d(64, 8, kernel_size=(3, 3), stride=(1, 1), padding=(1, 1))
    )
  )
  (open_clip): CustomTextCLIP(
    (visual): TimmModel(
      (trunk): VisionTransformer(
        (patch_embed): PatchEmbed(
          (proj): Conv2d(3, 1024, kernel_size=(16, 16), stride=(16, 16))
          (norm): Identity()
        )
        (pos_drop): Dropout(p=0.0, inplace=False)
        (patch_drop): Identity()
        (norm_pre): Identity()
        (blocks): Sequential(
          (0): Block(
            (norm1): LayerNorm((1024,), eps=1e-06, elementwise_affine=True)
            (attn): Attention(
              (qkv): Linear(in_features=1024, out_features=3072, bias=True)
              (q_norm): Identity()
              (k_norm): Identity()
              (attn_drop): Dropout(p=0.0, inplace=False)
              (proj): Linear(in_features=1024, out_features=1024, bias=True)
              (proj_drop): Dropout(p=0.0, inplace=False)
            )
            (ls1): Identity()
            (drop_path1): Identity()
            (norm2): LayerNorm((1024,), eps=1e-06, elementwise_affine=True)
            (mlp): Mlp(
              (fc1): Linear(in_features=1024, out_features=4096, bias=True)
              (act): GELU(approximate='none')
              (drop1): Dropout(p=0.0, inplace=False)
              (norm): Identity()
              (fc2): Linear(in_features=4096, out_features=1024, bias=True)
              (drop2): Dropout(p=0.0, inplace=False)
            )
            (ls2): Identity()
            (drop_path2): Identity()
          )
          (1): Block(
            (norm1): LayerNorm((1024,), eps=1e-06, elementwise_affine=True)
            (attn): Attention(
              (qkv): Linear(in_features=1024, out_features=3072, bias=True)
              (q_norm): Identity()
              (k_norm): Identity()
              (attn_drop): Dropout(p=0.0, inplace=False)
              (proj): Linear(in_features=1024, out_features=1024, bias=True)
              (proj_drop): Dropout(p=0.0, inplace=False)
            )
            (ls1): Identity()
            (drop_path1): Identity()
            (norm2): LayerNorm((1024,), eps=1e-06, elementwise_affine=True)
            (mlp): Mlp(
              (fc1): Linear(in_features=1024, out_features=4096, bias=True)
              (act): GELU(approximate='none')
              (drop1): Dropout(p=0.0, inplace=False)
              (norm): Identity()
              (fc2): Linear(in_features=4096, out_features=1024, bias=True)
              (drop2): Dropout(p=0.0, inplace=False)
            )
            (ls2): Identity()
            (drop_path2): Identity()
          )
          (2): Block(
            (norm1): LayerNorm((1024,), eps=1e-06, elementwise_affine=True)
            (attn): Attention(
              (qkv): Linear(in_features=1024, out_features=3072, bias=True)
              (q_norm): Identity()
              (k_norm): Identity()
              (attn_drop): Dropout(p=0.0, inplace=False)
              (proj): Linear(in_features=1024, out_features=1024, bias=True)
              (proj_drop): Dropout(p=0.0, inplace=False)
            )
            (ls1): Identity()
            (drop_path1): Identity()
            (norm2): LayerNorm((1024,), eps=1e-06, elementwise_affine=True)
            (mlp): Mlp(
              (fc1): Linear(in_features=1024, out_features=4096, bias=True)
              (act): GELU(approximate='none')
              (drop1): Dropout(p=0.0, inplace=False)
              (norm): Identity()
              (fc2): Linear(in_features=4096, out_features=1024, bias=True)
              (drop2): Dropout(p=0.0, inplace=False)
            )
            (ls2): Identity()
            (drop_path2): Identity()
          )
          (3): Block(
            (norm1): LayerNorm((1024,), eps=1e-06, elementwise_affine=True)
            (attn): Attention(
              (qkv): Linear(in_features=1024, out_features=3072, bias=True)
              (q_norm): Identity()
              (k_norm): Identity()
              (attn_drop): Dropout(p=0.0, inplace=False)
              (proj): Linear(in_features=1024, out_features=1024, bias=True)
              (proj_drop): Dropout(p=0.0, inplace=False)
            )
            (ls1): Identity()
            (drop_path1): Identity()
            (norm2): LayerNorm((1024,), eps=1e-06, elementwise_affine=True)
            (mlp): Mlp(
              (fc1): Linear(in_features=1024, out_features=4096, bias=True)
              (act): GELU(approximate='none')
              (drop1): Dropout(p=0.0, inplace=False)
              (norm): Identity()
              (fc2): Linear(in_features=4096, out_features=1024, bias=True)
              (drop2): Dropout(p=0.0, inplace=False)
            )
            (ls2): Identity()
            (drop_path2): Identity()
          )
          (4): Block(
            (norm1): LayerNorm((1024,), eps=1e-06, elementwise_affine=True)
            (attn): Attention(
              (qkv): Linear(in_features=1024, out_features=3072, bias=True)
              (q_norm): Identity()
              (k_norm): Identity()
              (attn_drop): Dropout(p=0.0, inplace=False)
              (proj): Linear(in_features=1024, out_features=1024, bias=True)
              (proj_drop): Dropout(p=0.0, inplace=False)
            )
            (ls1): Identity()
            (drop_path1): Identity()
            (norm2): LayerNorm((1024,), eps=1e-06, elementwise_affine=True)
            (mlp): Mlp(
              (fc1): Linear(in_features=1024, out_features=4096, bias=True)
              (act): GELU(approximate='none')
              (drop1): Dropout(p=0.0, inplace=False)
              (norm): Identity()
              (fc2): Linear(in_features=4096, out_features=1024, bias=True)
              (drop2): Dropout(p=0.0, inplace=False)
            )
            (ls2): Identity()
            (drop_path2): Identity()
          )
          (5): Block(
            (norm1): LayerNorm((1024,), eps=1e-06, elementwise_affine=True)
            (attn): Attention(
              (qkv): Linear(in_features=1024, out_features=3072, bias=True)
              (q_norm): Identity()
              (k_norm): Identity()
              (attn_drop): Dropout(p=0.0, inplace=False)
              (proj): Linear(in_features=1024, out_features=1024, bias=True)
              (proj_drop): Dropout(p=0.0, inplace=False)
            )
            (ls1): Identity()
            (drop_path1): Identity()
            (norm2): LayerNorm((1024,), eps=1e-06, elementwise_affine=True)
            (mlp): Mlp(
              (fc1): Linear(in_features=1024, out_features=4096, bias=True)
              (act): GELU(approximate='none')
              (drop1): Dropout(p=0.0, inplace=False)
              (norm): Identity()
              (fc2): Linear(in_features=4096, out_features=1024, bias=True)
              (drop2): Dropout(p=0.0, inplace=False)
            )
            (ls2): Identity()
            (drop_path2): Identity()
          )
          (6): Block(
            (norm1): LayerNorm((1024,), eps=1e-06, elementwise_affine=True)
            (attn): Attention(
              (qkv): Linear(in_features=1024, out_features=3072, bias=True)
              (q_norm): Identity()
              (k_norm): Identity()
              (attn_drop): Dropout(p=0.0, inplace=False)
              (proj): Linear(in_features=1024, out_features=1024, bias=True)
              (proj_drop): Dropout(p=0.0, inplace=False)
            )
            (ls1): Identity()
            (drop_path1): Identity()
            (norm2): LayerNorm((1024,), eps=1e-06, elementwise_affine=True)
            (mlp): Mlp(
              (fc1): Linear(in_features=1024, out_features=4096, bias=True)
              (act): GELU(approximate='none')
              (drop1): Dropout(p=0.0, inplace=False)
              (norm): Identity()
              (fc2): Linear(in_features=4096, out_features=1024, bias=True)
              (drop2): Dropout(p=0.0, inplace=False)
            )
            (ls2): Identity()
            (drop_path2): Identity()
          )
          (7): Block(
            (norm1): LayerNorm((1024,), eps=1e-06, elementwise_affine=True)
            (attn): Attention(
              (qkv): Linear(in_features=1024, out_features=3072, bias=True)
              (q_norm): Identity()
              (k_norm): Identity()
              (attn_drop): Dropout(p=0.0, inplace=False)
              (proj): Linear(in_features=1024, out_features=1024, bias=True)
              (proj_drop): Dropout(p=0.0, inplace=False)
            )
            (ls1): Identity()
            (drop_path1): Identity()
            (norm2): LayerNorm((1024,), eps=1e-06, elementwise_affine=True)
            (mlp): Mlp(
              (fc1): Linear(in_features=1024, out_features=4096, bias=True)
              (act): GELU(approximate='none')
              (drop1): Dropout(p=0.0, inplace=False)
              (norm): Identity()
              (fc2): Linear(in_features=4096, out_features=1024, bias=True)
              (drop2): Dropout(p=0.0, inplace=False)
            )
            (ls2): Identity()
            (drop_path2): Identity()
          )
          (8): Block(
            (norm1): LayerNorm((1024,), eps=1e-06, elementwise_affine=True)
            (attn): Attention(
              (qkv): Linear(in_features=1024, out_features=3072, bias=True)
              (q_norm): Identity()
              (k_norm): Identity()
              (attn_drop): Dropout(p=0.0, inplace=False)
              (proj): Linear(in_features=1024, out_features=1024, bias=True)
              (proj_drop): Dropout(p=0.0, inplace=False)
            )
            (ls1): Identity()
            (drop_path1): Identity()
            (norm2): LayerNorm((1024,), eps=1e-06, elementwise_affine=True)
            (mlp): Mlp(
              (fc1): Linear(in_features=1024, out_features=4096, bias=True)
              (act): GELU(approximate='none')
              (drop1): Dropout(p=0.0, inplace=False)
              (norm): Identity()
              (fc2): Linear(in_features=4096, out_features=1024, bias=True)
              (drop2): Dropout(p=0.0, inplace=False)
            )
            (ls2): Identity()
            (drop_path2): Identity()
          )
          (9): Block(
            (norm1): LayerNorm((1024,), eps=1e-06, elementwise_affine=True)
            (attn): Attention(
              (qkv): Linear(in_features=1024, out_features=3072, bias=True)
              (q_norm): Identity()
              (k_norm): Identity()
              (attn_drop): Dropout(p=0.0, inplace=False)
              (proj): Linear(in_features=1024, out_features=1024, bias=True)
              (proj_drop): Dropout(p=0.0, inplace=False)
            )
            (ls1): Identity()
            (drop_path1): Identity()
            (norm2): LayerNorm((1024,), eps=1e-06, elementwise_affine=True)
            (mlp): Mlp(
              (fc1): Linear(in_features=1024, out_features=4096, bias=True)
              (act): GELU(approximate='none')
              (drop1): Dropout(p=0.0, inplace=False)
              (norm): Identity()
              (fc2): Linear(in_features=4096, out_features=1024, bias=True)
              (drop2): Dropout(p=0.0, inplace=False)
            )
            (ls2): Identity()
            (drop_path2): Identity()
          )
          (10): Block(
            (norm1): LayerNorm((1024,), eps=1e-06, elementwise_affine=True)
            (attn): Attention(
              (qkv): Linear(in_features=1024, out_features=3072, bias=True)
              (q_norm): Identity()
              (k_norm): Identity()
              (attn_drop): Dropout(p=0.0, inplace=False)
              (proj): Linear(in_features=1024, out_features=1024, bias=True)
              (proj_drop): Dropout(p=0.0, inplace=False)
            )
            (ls1): Identity()
            (drop_path1): Identity()
            (norm2): LayerNorm((1024,), eps=1e-06, elementwise_affine=True)
            (mlp): Mlp(
              (fc1): Linear(in_features=1024, out_features=4096, bias=True)
              (act): GELU(approximate='none')
              (drop1): Dropout(p=0.0, inplace=False)
              (norm): Identity()
              (fc2): Linear(in_features=4096, out_features=1024, bias=True)
              (drop2): Dropout(p=0.0, inplace=False)
            )
            (ls2): Identity()
            (drop_path2): Identity()
          )
          (11): Block(
            (norm1): LayerNorm((1024,), eps=1e-06, elementwise_affine=True)
            (attn): Attention(
              (qkv): Linear(in_features=1024, out_features=3072, bias=True)
              (q_norm): Identity()
              (k_norm): Identity()
              (attn_drop): Dropout(p=0.0, inplace=False)
              (proj): Linear(in_features=1024, out_features=1024, bias=True)
              (proj_drop): Dropout(p=0.0, inplace=False)
            )
            (ls1): Identity()
            (drop_path1): Identity()
            (norm2): LayerNorm((1024,), eps=1e-06, elementwise_affine=True)
            (mlp): Mlp(
              (fc1): Linear(in_features=1024, out_features=4096, bias=True)
              (act): GELU(approximate='none')
              (drop1): Dropout(p=0.0, inplace=False)
              (norm): Identity()
              (fc2): Linear(in_features=4096, out_features=1024, bias=True)
              (drop2): Dropout(p=0.0, inplace=False)
            )
            (ls2): Identity()
            (drop_path2): Identity()
          )
          (12): Block(
            (norm1): LayerNorm((1024,), eps=1e-06, elementwise_affine=True)
            (attn): Attention(
              (qkv): Linear(in_features=1024, out_features=3072, bias=True)
              (q_norm): Identity()
              (k_norm): Identity()
              (attn_drop): Dropout(p=0.0, inplace=False)
              (proj): Linear(in_features=1024, out_features=1024, bias=True)
              (proj_drop): Dropout(p=0.0, inplace=False)
            )
            (ls1): Identity()
            (drop_path1): Identity()
            (norm2): LayerNorm((1024,), eps=1e-06, elementwise_affine=True)
            (mlp): Mlp(
              (fc1): Linear(in_features=1024, out_features=4096, bias=True)
              (act): GELU(approximate='none')
              (drop1): Dropout(p=0.0, inplace=False)
              (norm): Identity()
              (fc2): Linear(in_features=4096, out_features=1024, bias=True)
              (drop2): Dropout(p=0.0, inplace=False)
            )
            (ls2): Identity()
            (drop_path2): Identity()
          )
          (13): Block(
            (norm1): LayerNorm((1024,), eps=1e-06, elementwise_affine=True)
            (attn): Attention(
              (qkv): Linear(in_features=1024, out_features=3072, bias=True)
              (q_norm): Identity()
              (k_norm): Identity()
              (attn_drop): Dropout(p=0.0, inplace=False)
              (proj): Linear(in_features=1024, out_features=1024, bias=True)
              (proj_drop): Dropout(p=0.0, inplace=False)
            )
            (ls1): Identity()
            (drop_path1): Identity()
            (norm2): LayerNorm((1024,), eps=1e-06, elementwise_affine=True)
            (mlp): Mlp(
              (fc1): Linear(in_features=1024, out_features=4096, bias=True)
              (act): GELU(approximate='none')
              (drop1): Dropout(p=0.0, inplace=False)
              (norm): Identity()
              (fc2): Linear(in_features=4096, out_features=1024, bias=True)
              (drop2): Dropout(p=0.0, inplace=False)
            )
            (ls2): Identity()
            (drop_path2): Identity()
          )
          (14): Block(
            (norm1): LayerNorm((1024,), eps=1e-06, elementwise_affine=True)
            (attn): Attention(
              (qkv): Linear(in_features=1024, out_features=3072, bias=True)
              (q_norm): Identity()
              (k_norm): Identity()
              (attn_drop): Dropout(p=0.0, inplace=False)
              (proj): Linear(in_features=1024, out_features=1024, bias=True)
              (proj_drop): Dropout(p=0.0, inplace=False)
            )
            (ls1): Identity()
            (drop_path1): Identity()
            (norm2): LayerNorm((1024,), eps=1e-06, elementwise_affine=True)
            (mlp): Mlp(
              (fc1): Linear(in_features=1024, out_features=4096, bias=True)
              (act): GELU(approximate='none')
              (drop1): Dropout(p=0.0, inplace=False)
              (norm): Identity()
              (fc2): Linear(in_features=4096, out_features=1024, bias=True)
              (drop2): Dropout(p=0.0, inplace=False)
            )
            (ls2): Identity()
            (drop_path2): Identity()
          )
          (15): Block(
            (norm1): LayerNorm((1024,), eps=1e-06, elementwise_affine=True)
            (attn): Attention(
              (qkv): Linear(in_features=1024, out_features=3072, bias=True)
              (q_norm): Identity()
              (k_norm): Identity()
              (attn_drop): Dropout(p=0.0, inplace=False)
              (proj): Linear(in_features=1024, out_features=1024, bias=True)
              (proj_drop): Dropout(p=0.0, inplace=False)
            )
            (ls1): Identity()
            (drop_path1): Identity()
            (norm2): LayerNorm((1024,), eps=1e-06, elementwise_affine=True)
            (mlp): Mlp(
              (fc1): Linear(in_features=1024, out_features=4096, bias=True)
              (act): GELU(approximate='none')
              (drop1): Dropout(p=0.0, inplace=False)
              (norm): Identity()
              (fc2): Linear(in_features=4096, out_features=1024, bias=True)
              (drop2): Dropout(p=0.0, inplace=False)
            )
            (ls2): Identity()
            (drop_path2): Identity()
          )
          (16): Block(
            (norm1): LayerNorm((1024,), eps=1e-06, elementwise_affine=True)
            (attn): Attention(
              (qkv): Linear(in_features=1024, out_features=3072, bias=True)
              (q_norm): Identity()
              (k_norm): Identity()
              (attn_drop): Dropout(p=0.0, inplace=False)
              (proj): Linear(in_features=1024, out_features=1024, bias=True)
              (proj_drop): Dropout(p=0.0, inplace=False)
            )
            (ls1): Identity()
            (drop_path1): Identity()
            (norm2): LayerNorm((1024,), eps=1e-06, elementwise_affine=True)
            (mlp): Mlp(
              (fc1): Linear(in_features=1024, out_features=4096, bias=True)
              (act): GELU(approximate='none')
              (drop1): Dropout(p=0.0, inplace=False)
              (norm): Identity()
              (fc2): Linear(in_features=4096, out_features=1024, bias=True)
              (drop2): Dropout(p=0.0, inplace=False)
            )
            (ls2): Identity()
            (drop_path2): Identity()
          )
          (17): Block(
            (norm1): LayerNorm((1024,), eps=1e-06, elementwise_affine=True)
            (attn): Attention(
              (qkv): Linear(in_features=1024, out_features=3072, bias=True)
              (q_norm): Identity()
              (k_norm): Identity()
              (attn_drop): Dropout(p=0.0, inplace=False)
              (proj): Linear(in_features=1024, out_features=1024, bias=True)
              (proj_drop): Dropout(p=0.0, inplace=False)
            )
            (ls1): Identity()
            (drop_path1): Identity()
            (norm2): LayerNorm((1024,), eps=1e-06, elementwise_affine=True)
            (mlp): Mlp(
              (fc1): Linear(in_features=1024, out_features=4096, bias=True)
              (act): GELU(approximate='none')
              (drop1): Dropout(p=0.0, inplace=False)
              (norm): Identity()
              (fc2): Linear(in_features=4096, out_features=1024, bias=True)
              (drop2): Dropout(p=0.0, inplace=False)
            )
            (ls2): Identity()
            (drop_path2): Identity()
          )
          (18): Block(
            (norm1): LayerNorm((1024,), eps=1e-06, elementwise_affine=True)
            (attn): Attention(
              (qkv): Linear(in_features=1024, out_features=3072, bias=True)
              (q_norm): Identity()
              (k_norm): Identity()
              (attn_drop): Dropout(p=0.0, inplace=False)
              (proj): Linear(in_features=1024, out_features=1024, bias=True)
              (proj_drop): Dropout(p=0.0, inplace=False)
            )
            (ls1): Identity()
            (drop_path1): Identity()
            (norm2): LayerNorm((1024,), eps=1e-06, elementwise_affine=True)
            (mlp): Mlp(
              (fc1): Linear(in_features=1024, out_features=4096, bias=True)
              (act): GELU(approximate='none')
              (drop1): Dropout(p=0.0, inplace=False)
              (norm): Identity()
              (fc2): Linear(in_features=4096, out_features=1024, bias=True)
              (drop2): Dropout(p=0.0, inplace=False)
            )
            (ls2): Identity()
            (drop_path2): Identity()
          )
          (19): Block(
            (norm1): LayerNorm((1024,), eps=1e-06, elementwise_affine=True)
            (attn): Attention(
              (qkv): Linear(in_features=1024, out_features=3072, bias=True)
              (q_norm): Identity()
              (k_norm): Identity()
              (attn_drop): Dropout(p=0.0, inplace=False)
              (proj): Linear(in_features=1024, out_features=1024, bias=True)
              (proj_drop): Dropout(p=0.0, inplace=False)
            )
            (ls1): Identity()
            (drop_path1): Identity()
            (norm2): LayerNorm((1024,), eps=1e-06, elementwise_affine=True)
            (mlp): Mlp(
              (fc1): Linear(in_features=1024, out_features=4096, bias=True)
              (act): GELU(approximate='none')
              (drop1): Dropout(p=0.0, inplace=False)
              (norm): Identity()
              (fc2): Linear(in_features=4096, out_features=1024, bias=True)
              (drop2): Dropout(p=0.0, inplace=False)
            )
            (ls2): Identity()
            (drop_path2): Identity()
          )
          (20): Block(
            (norm1): LayerNorm((1024,), eps=1e-06, elementwise_affine=True)
            (attn): Attention(
              (qkv): Linear(in_features=1024, out_features=3072, bias=True)
              (q_norm): Identity()
              (k_norm): Identity()
              (attn_drop): Dropout(p=0.0, inplace=False)
              (proj): Linear(in_features=1024, out_features=1024, bias=True)
              (proj_drop): Dropout(p=0.0, inplace=False)
            )
            (ls1): Identity()
            (drop_path1): Identity()
            (norm2): LayerNorm((1024,), eps=1e-06, elementwise_affine=True)
            (mlp): Mlp(
              (fc1): Linear(in_features=1024, out_features=4096, bias=True)
              (act): GELU(approximate='none')
              (drop1): Dropout(p=0.0, inplace=False)
              (norm): Identity()
              (fc2): Linear(in_features=4096, out_features=1024, bias=True)
              (drop2): Dropout(p=0.0, inplace=False)
            )
            (ls2): Identity()
            (drop_path2): Identity()
          )
          (21): Block(
            (norm1): LayerNorm((1024,), eps=1e-06, elementwise_affine=True)
            (attn): Attention(
              (qkv): Linear(in_features=1024, out_features=3072, bias=True)
              (q_norm): Identity()
              (k_norm): Identity()
              (attn_drop): Dropout(p=0.0, inplace=False)
              (proj): Linear(in_features=1024, out_features=1024, bias=True)
              (proj_drop): Dropout(p=0.0, inplace=False)
            )
            (ls1): Identity()
            (drop_path1): Identity()
            (norm2): LayerNorm((1024,), eps=1e-06, elementwise_affine=True)
            (mlp): Mlp(
              (fc1): Linear(in_features=1024, out_features=4096, bias=True)
              (act): GELU(approximate='none')
              (drop1): Dropout(p=0.0, inplace=False)
              (norm): Identity()
              (fc2): Linear(in_features=4096, out_features=1024, bias=True)
              (drop2): Dropout(p=0.0, inplace=False)
            )
            (ls2): Identity()
            (drop_path2): Identity()
          )
          (22): Block(
            (norm1): LayerNorm((1024,), eps=1e-06, elementwise_affine=True)
            (attn): Attention(
              (qkv): Linear(in_features=1024, out_features=3072, bias=True)
              (q_norm): Identity()
              (k_norm): Identity()
              (attn_drop): Dropout(p=0.0, inplace=False)
              (proj): Linear(in_features=1024, out_features=1024, bias=True)
              (proj_drop): Dropout(p=0.0, inplace=False)
            )
            (ls1): Identity()
            (drop_path1): Identity()
            (norm2): LayerNorm((1024,), eps=1e-06, elementwise_affine=True)
            (mlp): Mlp(
              (fc1): Linear(in_features=1024, out_features=4096, bias=True)
              (act): GELU(approximate='none')
              (drop1): Dropout(p=0.0, inplace=False)
              (norm): Identity()
              (fc2): Linear(in_features=4096, out_features=1024, bias=True)
              (drop2): Dropout(p=0.0, inplace=False)
            )
            (ls2): Identity()
            (drop_path2): Identity()
          )
          (23): Block(
            (norm1): LayerNorm((1024,), eps=1e-06, elementwise_affine=True)
            (attn): Attention(
              (qkv): Linear(in_features=1024, out_features=3072, bias=True)
              (q_norm): Identity()
              (k_norm): Identity()
              (attn_drop): Dropout(p=0.0, inplace=False)
              (proj): Linear(in_features=1024, out_features=1024, bias=True)
              (proj_drop): Dropout(p=0.0, inplace=False)
            )
            (ls1): Identity()
            (drop_path1): Identity()
            (norm2): LayerNorm((1024,), eps=1e-06, elementwise_affine=True)
            (mlp): Mlp(
              (fc1): Linear(in_features=1024, out_features=4096, bias=True)
              (act): GELU(approximate='none')
              (drop1): Dropout(p=0.0, inplace=False)
              (norm): Identity()
              (fc2): Linear(in_features=4096, out_features=1024, bias=True)
              (drop2): Dropout(p=0.0, inplace=False)
            )
            (ls2): Identity()
            (drop_path2): Identity()
          )
        )
        (norm): LayerNorm((1024,), eps=1e-06, elementwise_affine=True)
        (attn_pool): AttentionPoolLatent(
          (q): Linear(in_features=1024, out_features=1024, bias=True)
          (kv): Linear(in_features=1024, out_features=2048, bias=True)
          (q_norm): Identity()
          (k_norm): Identity()
          (proj): Linear(in_features=1024, out_features=1024, bias=True)
          (proj_drop): Dropout(p=0.0, inplace=False)
          (norm): LayerNorm((1024,), eps=1e-06, elementwise_affine=True)
          (mlp): Mlp(
            (fc1): Linear(in_features=1024, out_features=4096, bias=True)
            (act): GELU(approximate='none')
            (drop1): Dropout(p=0.0, inplace=False)
            (norm): Identity()
            (fc2): Linear(in_features=4096, out_features=1024, bias=True)
            (drop2): Dropout(p=0.0, inplace=False)
          )
        )
        (fc_norm): Identity()
        (head_drop): Dropout(p=0.0, inplace=False)
        (head): Identity()
      )
      (head): Sequential()
    )
  )
  (open_clip_output): Adaptor(
    (fc1): Linear(in_features=1024, out_features=4096, bias=True)
    (ln_fc1): LayerNorm((4096,), eps=1e-05, elementwise_affine=True)
    (fc2): Linear(in_features=4096, out_features=4096, bias=True)
    (ln_fc2): LayerNorm((4096,), eps=1e-05, elementwise_affine=True)
    (conv1): Conv2d(1, 32, kernel_size=(3, 3), stride=(1, 1), padding=(1, 1))
    (ln_conv1): LayerNorm((32, 64, 64), eps=1e-05, elementwise_affine=True)
    (conv2): Conv2d(32, 64, kernel_size=(3, 3), stride=(1, 1), padding=(1, 1))
    (ln_conv2): LayerNorm((64, 64, 64), eps=1e-05, elementwise_affine=True)
    (conv3): Conv2d(64, 4, kernel_size=(3, 3), stride=(1, 1), padding=(1, 1))
  )
)
2025-04-07 18:09:01,373 - utils.py - resume from /storage/v-jinpewang/lab_folder/qisheng_data/workdir/t2i_training_demo/default/ckpts/420000.ckpt
2025-04-07 18:09:01,374 - utils.py - load from /storage/v-jinpewang/lab_folder/qisheng_data/workdir/t2i_training_demo/default/ckpts/420000.ckpt
Create autoencoder with scale_factor=0.2301
making attention of type 'vanilla' with 512 in_channels
…
